…
": {"page": 521, "content_type": "text", "section_path": [], "source_stage": "pdf_text"}}
{"doc_id": "f33d29ea-5935-4606-8342-c4e11496f63f", "chunk_id": "baf7740a-4ade-59b3-b702-7c23e3134281", "order": 514, "content": {"text": "Chapter 14 493 torch.Size([4, 256]) Finally, we can add a fully connected layer to get a single output unit. In this case, we can specify the activation function to be 'sigmoid': >>> model.add_module('fc', nn.Linear(256, 1)) >>> model.add_module('sigmoid', nn.Sigmoid()) >>> x = torch.ones((4, 3, 64, 64)) >>> model(x).shape torch.Size([4, 1]) >>> model Sequential( (conv1): Conv2d(3, 32, kernel_size=(3, 3), stride=(1, 1), padding=(1, 1)) (relu1): ReLU() (pool1): MaxPool2d(kernel_size=2, stride=2, padding=0, dilation=1, ceil_ mode=False) (dropout1): Dropout(p=0.5, inplace=False) (conv2): Conv2d(32, 64, kernel_size=(3, 3), stride=(1, 1), padding=(1, 1)) (relu2): ReLU() (pool2): MaxPool2d(kernel_size=2, stride=2, padding=0, dilation=1, ceil_ mode=False) (dropout2): Dropout(p=0.5, inplace=False) (conv3): Conv2d(64, 128, kernel_size=(3, 3), stride=(1, 1), padding=(1, 1)) (relu3): ReLU() (pool3): MaxPool2d(kernel_size=2, stride=2, padding=0, dilation=1, ceil_ mode=False) (conv4): Conv2d(128, 256, kernel_size=(3, 3), stride=(1, 1), padding=(1, 1)) (relu4): ReLU() (pool4): AvgPool2d(kernel_size=8, stride=8, padding=0) (flatten): Flatten(start_dim=1, end_dim=-1) (fc): Linear(in_features=256, out_features=1, bias=True) (sigmoid): Sigmoid() ) The next step is to create a loss function and optimizer (Adam optimizer again). For a binary classifi- cation with a single probabilistic output, we use BCELoss for the loss function: >>> loss_fn = nn.BCELoss() >>> optimizer = torch.optim.Adam(model.parameters(), lr=0.001)", "type": "text"}, "metadata": {"page": 522, "content_type": "text", "section_path": [], "source_stage": "pdf_text"}}
…
gmoid() ... ) ... ... def forward(self, input): ... output = self.network(input) ... return output.view(-1, 1).squeeze(0) With the helper function and class, you can build a DCGAN model and train it by using the same MNIST dataset object we initialized in the previous section when we implemented the simple, fully connected GAN. We can create the generator networks using the helper function and print its archi- tecture as follows: >>> z_size = 100 >>> image_size = (28, 28) >>> n_filters = 32 >>> gen_model = make_generator_network(z_size, n_filters).to(device) >>> print(gen_model) Sequential( (0): ConvTranspose2d(100, 128, kernel_size=(4, 4), stride=(1, 1), bias=False) (1): BatchNorm2d(128, eps=1e-05, momentum=0.1, affine=True, track_running_ stats=True) (2): LeakyReLU(negative_slope=0.2) (3): ConvTranspose2d(128, 64, kernel_size=(3, 3), stride=(2, 2), padding=(1, 1), bias=False) (4): BatchNorm2d(64, eps=1e-05, momentum=0.1, affine=True, track_running_ stats=True) (5): LeakyReLU(negative_slope=0.2) (6): ConvTranspose2d(64, 32, kernel_size=(4, 4), stride=(2, 2), padding=(1, 1), bias=False) (7): BatchNorm2d(32, eps=1e-05, momentum=0.1, affine=True, track_running_ stats=True)", "type": "text"}, "metadata": {"page": 648, "content_type": "text", "section_path": [], "source_stage": "pdf_text"}}
{"doc_id": "f33d29ea-5935-4606-8342-c4e11496f63f", "chunk_id": "61a40d1a-fe60-5ca6-9750-a6a6933735bb", "order": 640, "content": {"text": "Generative Adversarial Networks for Synthesizing New Data 620 (8): LeakyReLU(negative_slope=0.2) (9): ConvTranspose2d(32, 1, kernel_size=(4, 4), stride=(2, 2), padding=(1, 1), bias=False) (10): Tanh() ) Similarly, we can generate the discriminator network and see its architecture: >>> disc_model = Discriminator(n_filters).to(device) >>> print(disc_model) Discriminator( (network): Sequential( (0): Conv2d(1, 32, kernel_size=(4, 4), stride=(2, 2), padding=(1, 1), bias=False) (1): LeakyReLU(negative_slope=0.2) (2): Conv2d(32, 64, kernel_size=(4, 4), stride=(2, 2), padding=(1, 1), bias=False) (3): BatchNorm2d(64, eps=1e-05, momentum=0.1, affine=True, track_running_ stats=True) (4): LeakyReLU(negative_slope=0.2) (5): Conv2d(64, 128, kernel_size=(3, 3), stride=(2, 2), padding=(1, 1), bias=False) (6): BatchNorm2d(128, eps=1e-05, momentum=0.1, affine=True, track_running_ stats=True) (7): LeakyReLU(negative_slope=0.2) (8): Conv2d(128, 1, kernel_size=(4, 4), stride=(1, 1), bias=False) (9): Sigmoid() ) ) Also, we can use the same loss functions and optimizers as we did in the Training the GAN model subsection: >>> loss_fn = nn.BCELoss() >>> g_optimizer = torch.optim.Adam(gen_model.parameters(), 0.0003) >>> d_optimizer = torch.optim.Adam(disc_model.parameters(), 0.0002)", "type": "text"}, "metadata": {"page": 649, "content_type": "text", "section_path": [], "source_stage": "pdf_text"}}
…
